Anul-III/Sem-II/NLP/lab_4/model.pt (torch, 1191 bytes, 2 tensors)

linear.weight f4 [3, 9]
0	0xbd036eca	-0.03208808
1	0xbcbd510d	-0.023109937
2	0xbe34dc99	-0.17662276
3	0x3d8b8f31	0.06814421
4	0xbd48fbb8	-0.049068183
5	0x3d5bd917	0.05367383
6	0x3c86c573	0.016451573
7	0xbe329ffa	-0.17443839
8	0x3e47f3d3	0.19526605
9	0xbc3b4bff	-0.011431693
10	0xbe489725	-0.19588907
11	0x3d38ba97	0.04509982
12	0x3e77d6b8	0.24203002
13	0x3e38c49a	0.18043748
14	0x3dacaa70	0.08430946
15	0xbe8e6c9a	-0.2781723
16	0xbeb472eb	-0.35243925
17	0xbc693e1e	-0.014236001
18	0x3cdd33f3	0.02700231
19	0x3efca087	0.49341223
20	0xbdc00889	-0.09376628
21	0xbe956682	-0.2917977
22	0xbe7c865f	-0.24660634
23	0x3d99e1e0	0.07513785
24	0xbe4fb3c3	-0.20283417
25	0xbeb25585	-0.3483087
26	0xbccf4298	-0.025300309

linear.bias f4 [3]
0	0x3d825748	0.06364304
1	0x3e821d08	0.25412774
2	0xbe9714c7	-0.2950804
